model/MNIST.pth (torch_old, 88644 bytes, 8 tensors)

conv1.weight f4 [10, 1, 5, 5]
0.21003264 0.22536366 0.3087221 0.13140148 0.36515558 0.079728566 0.15229237 0.12564814
0.24073748 0.0026854612 0.09625093 -0.11329808 -0.19396657 -0.07462761 0.118063755 0.053310916
-0.2438284 0.11660566 -0.2760757 0.079594314 -0.15305294 -0.22439255 -0.24166255 -0.027253103
-0.03176304 0.21160983 -0.14035271 -0.09069719 0.1134893 0.12657703 0.16916074 -0.11397354
-0.21091698 -0.15663892 0.09346691 0.2842559 -0.022842636 -0.124696195 0.025646348 -0.1632886
0.26308092 -0.18367793 -0.19389375 -0.112853125 0.004613919 0.23021857 0.21367657 -0.2422309
0.020039503 -0.16443622 0.1275297 0.26981434 0.13625024 -0.17427811 -0.23466213 0.21500294
0.2972071 -0.13258591 -0.03618596 -0.3125315 0.19567351 0.39388278 0.17668174 -0.3006134
-0.29517812 0.28405544 0.28828102 0.31990522 0.05902514 0.13493463 0.20046306 0.29684705
0.31347495 0.25044304 0.32097748 -0.056817066 -0.21557587 0.010105852 0.0412761 0.07940911
-0.13546582 0.008579988 -0.22710985 -0.09320916 -0.055981293 -0.27163836 -0.09856452 0.14287761
0.2688758 0.15768029 -0.033873156 -0.031315036 0.19079539 0.0915029 -0.13188279 -0.0116596725
0.29041958 0.2438223 0.12085284 -0.06248376 0.19216752 0.23288612 0.11623866 0.27505594
0.14526814 0.04376958 -0.0797164 -0.085728884 0.23716828 0.27271616 -0.2816909 -0.11705224
0.09054275 0.23609264 0.36509463 -0.08363871 -0.1180831 0.2630621 0.38498765 0.07754748
0.067794144 0.2874426 0.0850003 0.050589014 0.2307517 0.0905801 -0.15651938 -0.30721575
-0.33032548 -0.2853987 -0.2459272 -0.33576828 -0.18163706 -0.14128487 -0.030080182 0.04816809
-0.0027741613 0.2486949 0.1888275 0.095462136 0.3045967 0.38829163 0.1239522 0.41803434
0.33111158 0.2784695 0.2017548 0.091815844 -0.11952221 -0.008808468 0.16059345 -0.10317786
0.0846232 -0.07535142 -0.0036783938 -0.039389614 -0.100442536 -0.20198496 -0.12842426 -0.04491443
0.035860658 0.06524187 0.15082511 0.038834047 -0.24603447 -0.13503999 -0.079016745 -0.13545541
0.09607472 -0.012918741 0.2638252 0.09372808 0.20526904 -0.019377433 0.27471423 -0.0930939
0.18549033 -0.010773429 -0.13826384 -0.03539821 -0.15886605 0.18291847 0.023200618 0.014952974
-0.028702112 -0.062704615 0.1852558 0.327901 0.23467326 0.11370831 -0.21165076 0.05247932
-0.038911 -0.07866696 0.22814909 -0.30775726 -0.18409728 -0.17077914 0.0016892122 -0.15379831
-0.23919173 -0.29616582 -0.14325376 -0.23386525 0.073187426 0.021566993 -0.006860683 0.018326221
-0.21168937 -0.080973744 -0.027392607 -0.16211842 -0.09535925 -0.091465525 -0.25560796 0.09233565
-0.03982676 -0.019197216 0.009895153 -0.034581058 0.13129999 0.19056626 0.26006302 -0.087529
0.15982974 0.27499753 0.40506303 0.33558053 0.209078 0.14356117 0.33282316 0.13175923
-0.09015515 -0.20807265 -0.111327164 0.38992402 -0.045784134 -0.2333594 -0.025863089 0.012745735
0.2309942 -0.14102456 -0.054252885 -0.15031849 -0.18733853 0.13028589 -0.09921512 -0.16769311
-0.024720743 -0.07444812
00000000: cc12 573e bbc5 663e d310 9e3e 1c8e 063e
00000010: acf5 ba3e bb48 a33d 88f2 1b3e e8a9 003e
00000020: e383 763e 90fe 2f3b 351f c53d d308 e8bd
00000030: 2c9f 46be 5cd6 98bd 69cb f13d 8c5c 5a3d
00000040: 27ae 79be f3ce ee3d cb59 8dbe 5802 a33d
00000050: e9b9 1cbe 29c7 65be 6376 77be e641 dfbc
00000060: f619 02bd 3fb0 583e 9fb8 0fbe 73bf b9bd
00000070: 146d e83d 699d 013e 7938 2d3e f66a e9bd
00000080: 9ffa 57be f465 20be 946b bf3d fd89 913e
00000090: 7b20 bbbc b860 ffbd 4a18 d23c 2035 27be
000000a0: 8bb2 863e 1116 3cbe 158c 46be 8a1f e7bd
000000b0: 5c30 973b 6bbe 6b3e 08ce 5a3e 610b 78be
000000c0: e229 a43c f861 28be 2597 023e 1b25 8a3e
000000d0: 2f85 0b3e f675 32be 454b 70be bb29 5c3e
000000e0: 872b 983e 9ac4 07be bb37 14bd 2104 a0be
000000f0: a35e 483e 01ab c93e 0fec 343e 00ea 99be
00000100: 9621 97be b76f 913e 9299 933e 9eca a33e
00000110: 58c4 713d 4e2c 0a3e 3046 4d3e 56fc 973e
00000120: ca7f a03e 123a 803e 2957 a43e 03b9 68bd
00000130: ecbf 5cbe 0493 253c 2111 293d 3ea1 a23d
00000140: 8db7 0abe 1493 0c3c 7c8f 68be 72e4 bebd
00000150: a44c 65bd 2f14 8bbe 32dc c9bd 824e 123e
00000160: 17aa 893e f176 213e 94be 0abd 3244 00bd
00000170: de5f 433e df65 bb3d 480c 07be 3608 3fbc
00000180: e0b1 943e 8eac 793e b281 f73d f9ee 7fbd
00000190: 90c7 443e b379 6e3e 890e ee3d 22d4 8c3e
000001a0: 2cc1 143e bb47 333d 5a42 a3bd a092 afbd
000001b0: 3edc 723e 74a1 8b3e ca39 90be 16b9 efbd
000001c0: 7a6e b93d 45c2 713e afed ba3e c64a abbd
000001d0: 8dd5 f1bd 13b0 863e 1a1d c53e 37d1 9e3d
000001e0: a8d7 8a3d ad2b 933e a314 ae3d 6d36 4f3d
000001f0: 2c4a 6c3e 0f82 b93d 9e46 20be 624b 9dbe
00000200: 6c20 a9be c71f 92be 57d4 7bbe d2e9 abbe
00000210: 11ff 39be fbac 10be b76a f6bc e74b 453d
00000220: b4ce 35bb e0a9 7e3e ff5b 413e a781 c33d
00000230: 19f4 9b3e 29ce c63e a7da fd3d 9908 d63e
00000240: 7587 a93e 8e93 8e3e cf98 4e3e f209 bc3d
00000250: 0fc8 f4bd 6451 10bc 9c72 243e ea4e d3bd
00000260: ee4e ad3d d851 9abd 3511 71bb 0157 21bd
00000270: d1b4 cdbd 25d5 4ebe a681 03be 31f8 37bd
00000280: a0e2 123d 889d 853d e671 1a3e 7310 1f3d
00000290: 76f0 7bbe ec47 0abe 88d3 a1bd d3b4 0abe
000002a0: d3c2 c43d 21a9 53bc 1914 873e 82f4 bf3d
000002b0: 0c32 523e 6cbd 9ebc 58a7 8c3e 04a8 bebd
000002c0: 2df1 3d3e 0983 30bc 0995 0dbe b7fd 10bd
000002d0: c8ad 22be fb4e 3b3e 390f be3c 52fd 743c
000002e0: b120 ebbc 476b 80bd b2b3 3d3e a4e2 a73e
000002f0: 304e 703e e7df e83d faba 58be 8ef4 563d
00000300: 2461 1fbd 251c a1bd ea9f 693e 5c92 9dbe
00000310: ff83 3cbe bae0 2ebe 8e68 dd3a 4e7d 1dbe
00000320: adee 74be 0ca3 97be 1db1 12be 5f7a 6fbe
00000330: 4ae3 953d 43ad b03c 95cf e0bb df20 963c
00000340: 19c5 58be 90d5 a5bd 7666 e0bc 5f02 26be
00000350: b64b c3bd 4752 bbbd 0cdf 82be 791a bd3d
00000360: 6221 23bd 7b43 9dbc 481f 223c dea4 0dbd
00000370: 8173 063e cd23 433e fb26 853e 6842 b3bd
00000380: 68aa 233e 7acc 8c3e 6c64 cf3e 36d1 ab3e
00000390: 8b18 563e b301 133e cc67 aa3e e4eb 063e
000003a0: 43a3 b8bd ff10 55be 7fff e3bd 1fa4 c73e
000003b0: 2588 3bbd c4f5 6ebe d4de d3bc 7dd3 503c
000003c0: be89 6c3e be68 10be 4638 5ebd 17ed 19be
000003d0: acd5 3fbe aa69 053e 4c31 cbbd beb7 2bbe
000003e0: 2883 cabc 4278 98bd

conv1.bias f4 [10]
0.059694476 0.14611241 0.13867587 -0.012874432 0.19400187 -0.073523104 -0.066786155 -0.042214695
0.24308875 0.11597485
00000000: 3282 743d 7e9e 153e 0c01 0e3e 48ef 52bc
00000010: 6da8 463e 4893 96bd 2ec7 88bd 51e9 2cbd
00000020: 42ec 783e 3984 ed3d

conv2.weight f4 [20, 10, 5, 5]
-0.04491363 0.0002942688 -0.019239461 0.009664187 -0.002531135 0.012640485 -0.10521573 -0.021222392
-0.016463637 0.00078763434 -0.028491903 -0.09127654 -0.05460825 0.046321105 -0.07156822 -0.006299422
-0.029878646 0.03947048 -0.027512698 -0.051700473 -0.08333137 -0.024072386 -0.008136232 0.02837522
-0.06789371 0.04346431 -0.010061468 0.015777411 -0.0020838128 -0.04399904 -0.05018171 -0.01916642
-0.021526758 0.005153068 -0.027778044 0.02344416 -0.032998867 0.042958617 0.01583408 -0.042087097
-0.06351832 0.04189918 0.04843907 0.039005272 -0.05667762 -0.021728424 -0.0146154165 0.024405658
-0.058888547 -0.077050425 -0.11559061 -0.21445045 -0.16852053 -0.06760473 0.049696818 -0.14026792
-0.09695534 0.029282523 0.023224043 -0.00020758466 -0.23303428 -0.05354627 0.14590731 0.0021239487
-0.09313051 -0.10216918 0.09020398 0.16734798 0.040479742 -0.075094156 0.028357565 0.04351148
0.09126739 -0.0038561865 -0.049879897 -0.0022346217 0.029958405 0.00038880916 0.091175 0.048201885
0.0259155 0.110089 0.069535725 0.068042256 0.015406015 0.018986613 0.05152679 0.03284708
-0.030117797 0.0276015 -0.020242242 0.053318974 0.048756592 0.033210237 0.051342916 0.021125877
0.03701154 0.0111435875 -0.006461662 -0.04490607 -0.19100742 -0.047187112 0.09652828 0.06916527
0.087740704 -0.12281491 0.047861986 0.0490456 -0.07896374 -0.021004865 -0.021612506 0.06947864
-0.01853418 -0.02508806 -0.022766924 -0.0029006081 0.0634593 -0.07117989 -0.01489752 -0.0057482296
0.05922435 -0.012382626 -0.0025915033 0.0106997 -0.07462738 -0.051006645 -0.0911958 -0.07713795
0.029712185 -0.0020793579 -0.11625674 -0.037923235 -0.0017793787 -0.0059726504 -0.123812675 -0.09562026
-0.099721335 -0.02215621 -0.024607345 -0.072314896 0.00044555348 -0.070586585 -0.12269503 0.03865697
0.031128783 -0.00758769 -0.089082815 -0.100691944 0.00853596 0.03798157 -0.05595072 -0.014512363
0.0076564443 -0.06802361 0.010346289 0.04392035 0.048533197 -0.016581051 -0.07482346 -0.0292632
-0.018629303 -0.020778535 0.034491986 -0.0018842653 0.058764856 0.05305938 -0.0748436 -0.06824848
-0.024176776 -0.054897793 -0.028515184 -0.05917677 -0.017489243 -0.04212802 0.038172632 -0.03925307
-0.0076030134 -0.015404106 0.04352567 0.016196132 -0.030358288 -0.040244553 -0.0442376 -0.023882864
0.037613064 0.005993236 -0.07043703 -0.021658977 0.010713104 -0.045838777 0.016278202 0.013359471
-0.005368417 -0.048096757 0.020903857 0.015148744 0.041721277 0.08319699 0.011089337 0.055901658
-0.02511937 0.0072073727 0.014159982 -0.046931572 -0.0465788 -0.058432896 0.048885923 0.022956463
-0.015370134 -0.009834379 -0.04800014 -0.085466035 -0.048827432 0.025441512 -0.0035911403 -0.0036323918
0.011852945 -0.03515245 -0.038352113 0.00875423 -0.0113297375 -0.020006733 0.020143032 0.0042343726
0.006842561 0.041188993 -0.052316673 -0.029527113 -0.014963488 0.06158562 0.07000276 -0.081150755
-0.045963652 0.08167633 0.042645276 -0.046005342 0.02191559 0.120355636 0.10404159 -0.01588283
-0.063555956 -0.059323873 0.052574687 0.013591148 -0.01555321 0.016660264 0.03219201 0.06429101
-0.07182994 0.011201386 -0.0052296137 -0.043704584 -0.086143285 0.054611687 0.021397416 -0.044481073
00000000: 5bf7 37bd 1748 9a39 139c 9dbc 8a56 1e3c
00000010: 66e1 25bb 091a 4f3c 587b d7bd 95da adbc
00000020: c0de 86bc 3f79 4e3a da67 e9bc 32ef babd
00000030: e6ac 5fbd 33bb 3d3d 5c92 92bd 626b cebb
00000040: 10c4 f4bc ccab 213d 4f62 e1bc e0c3 53bd
00000050: a3a9 aabd 7433 c5bc d54d 05bc 2673 e83c
00000060: dc0b 8bbd a207 323d dbd8 24bc a13f 813c
00000070: 9490 08bb 5638 34bd 568b 4dbd e502 9dbc
00000080: e258 b0bc 11db a83b c88e e3bc f80d c03c
00000090: d229 07bd 60f5 2f3d 79b6 813c 8563 2cbd
000000a0: e515 82bd 799e 2b3d 0c68 463d fec3 1f3d
000000b0: cb26 68bd cfff b1bc 8075 6fbc 60ee c73c
000000c0: 1e35 71bd 9dcc 9dbd c5ba ecbd e698 5bbe
000000d0: a590 2cbe 5974 8abd e48e 4b3d 65a2 0fbe
000000e0: 8590 c6bd e7e1 ef3c 5940 be3c 15ab 59b9
000000f0: 8aa0 6ebe 5553 5bbd ba68 153e f231 0b3b
00000100: 35bb bebd 133e d1bd ddbc b83d 455d 2b3e
00000110: 16ce 253d f7ca 99bd 204e e83c 1839 323d
00000120: 66ea ba3d 13b8 7cbb dd4e 4cbd bb72 12bb
00000130: 546b f53c 15d9 cb39 f5b9 ba3d 576f 453d
00000140: be4c d43c 5776 e13d bf68 8e3d bd59 8b3d
00000150: 8369 7c3c d089 9b3c c10d 533d a98a 063d
00000160: 99b9 f6bc 8a1c e23c 0fd3 a5bc ff64 5a3d
00000170: feb4 473d 7507 083d f34c 523d 2d10 ad3c
00000180: 6a99 173d 9893 363c 59bc d3bb 6def 37bd
00000190: 7397 43be 4647 41bd 9eb0 c53d 85a6 8d3d
000001a0: 66b1 b33d 6286 fbbd ee0a 443d 0ae4 483d
000001b0: beb7 a1bd 6512 acbc b60c b1bc d14a 8e3d
000001c0: fed4 97bc 7a85 cdbc b381 babc 2118 3ebb
000001d0: f3f6 813d c3c6 91bd ba14 74bc a55b bcbb
000001e0: 3b95 723d 7fe0 4abc 36d6 29bb cb4d 2f3c
000001f0: 3dd6 98bd 58ec 50bd ddc4 babd 80fa 9dbd
00000200: f866 f33c d645 08bb 0418 eebd 6555 1bbd
00000210: 0b3a e9ba 39b6 c3bb 8091 fdbd 8ed4 c3bd
00000220: b33a ccbd f180 b5bc 5895 c9bc d519 94bd
00000230: 2d99 e939 b38f 90bd 8847 fbbd c556 1e3d
00000240: ca01 ff3c 28a2 f8bb 0d71 b6bd 9437 cebd
00000250: 69da 0b3c 9092 1b3d 952c 65bd 43c5 6dbc
00000260: e9e2 fa3b f64f 8bbd 7b83 293c d3e5 333d
00000270: bfca 463d fcd4 87bc 0b3d 99bd 61b9 efbc
00000280: 7b9c 98bc bf37 aabc 7847 0d3d 74f9 f6ba
00000290: 6bb3 703d cb54 593d 9a47 99bd dcc5 8bbd
000002a0: 600e c6bc 82dc 60bd ad98 e9bc 5763 72bd
000002b0: 9a45 8fbc 6e8e 2cbd e85a 1c3d d4c7 20bd
000002c0: b322 f9bb 8161 7cbc f947 323d c0ad 843c
000002d0: f2b1 f8bc 79d7 24bd 7c32 35bd ffa5 c3bc
000002e0: 2810 1a3d e862 c43b 4a41 90bd 2b6e b1bc
000002f0: 0486 2f3c 71c1 3bbd dd59 853c afe1 5a3c
00000300: 8ce9 afbb 1b01 45bd 913e ab3c 7032 783c
00000310: eee3 2a3d 2f63 aa3d 0db0 353c 23f9 643d
00000320: 23c7 cdbc d32b ec3b 45ff 673c 523b 40bd
00000330: 69c9 3ebd 5557 6fbd 9b3c 483d 310f bc3c
00000340: 04d3 7bbc 6020 21bc cb9b 44bd d108 afbd
00000350: 46ff 47bd b86a d03c 5659 6bbb 6c0d 6ebb
00000360: db32 423c 04fc 0fbd 1b17 1dbd e76d 0f3c
00000370: 5da0 39bc 29e5 a3bc 0003 a53c 7ec0 8a3b
00000380: 9037 e03b cab5 283d 024a 56bd d8e2 f1bc
00000390: 6b29 75bc 3441 7c3d 9b5d 8f3d 5e32 a6bd
000003a0: 6244 3cbd eb45 a73d d0ac 2e3d 1970 3cbd
000003b0: 5388 b33c 047d f63d c213 d53d b51c 82bc
000003c0: a029 82bd 97fd 72bd 8e58 573d 68ad 5e3c
000003d0: e4d2 7ebc 1b7b 883c c5db 033d 01ab 833d
000003e0: 931b 93bd 0586 373c 2e5d abbb 9403 33bd
000003f0: e46b b0bd 81b0 5f3d a249 af3c c931 36bd

conv2.bias f4 [20]
-0.014163614 0.040083133 -0.010681724 -0.07340886 0.02847112 -0.013788654 0.033981137 0.03264557
-0.022968374 0.01618282 0.062545955 0.008612254 -0.030705214 0.043795794 -0.059278343 -0.05569107
0.024185808 -0.03620825 0.019397369 0.027718524
00000000: 810e 68bc 362e 243d 6602 2fbc 6257 96bd
00000010: 443c e93c cee9 61bc ce2f 0b3d 5cb7 053d
00000020: 2c28 bcbc d591 843c 1818 803d 691a 0d3c
00000030: 8089 fbbc 3863 333d d9cd 72bd 521c 64bd
00000040: 5121 c63c 1a4f 14bd 3be7 9e3c f511 e33c

fc1.weight f4 [50, 320]
0.020764567 -5.943673e-05 0.10388663 0.058498267 -0.008131235 0.012246319 0.0029312833 -0.022447813
-0.05649377 -0.014632851 0.057587706 -0.0137975225 -0.015830614 -0.08333685 0.02218967 -0.054536223
0.009046898 -0.045269236 0.05326814 0.016547699 -0.05042228 -0.011170827 -0.00012577783 -0.023088528
0.014433271 -0.05050143 -0.009756752 -0.008415792 -0.048964746 -0.0009378898 -0.051947273 0.051111385
-0.014693309 -0.08344508 -0.032106683 0.03419876 -0.035279393 -0.024660677 0.027006583 0.09199564
-0.01573632 0.049539894 0.0066911117 -0.015189506 -0.01590786 -0.061000153 0.018469667 -0.08866269
0.04403781 -0.022086015 -0.040156987 0.040787447 0.05013259 0.02625645 0.007683721 -0.00043567346
0.046706416 -0.023118421 -0.022155594 -0.010815855 0.04805083 -0.016025044 -0.0058981893 -0.010347361
-0.0094575025 0.012247451 -0.07926724 -0.0023161331 -0.041466836 0.11819086 -0.014041058 0.09233806
-0.06687336 0.017531285 0.012335 -0.006420522 -0.08689129 -0.021639237 -0.018937282 0.024518471
-0.025458919 0.02519778 0.0458098 0.087917455 -0.006108719 0.0044480385 0.012335104 -0.03372678
0.009535993 0.04640433 -0.054420274 -0.0029038494 0.033103593 0.05291062 0.049004767 0.018715043
0.03579604 -0.015228164 0.082501605 -0.01131361 0.013729483 0.00046017123 0.010979773 -0.09982152
-0.024305498 -0.036460906 0.05775092 -0.018020855 -0.063524954 -0.055872906 -0.029167388 0.035596136
-0.09424893 -0.009019831 -0.044945482 -0.10279625 -0.025467606 -0.012498372 0.009905007 0.06111866
0.03975043 -0.019598931 0.024407173 0.00038071326 -0.029762479 0.05334064 0.004184244 -0.0049338196
-0.009770706 0.05233313 0.032710876 0.032750644 -0.03810864 0.01846345 -0.021051127 -0.00012332232
-0.014575792 0.034235843 0.03751565 -0.041477397 0.0139526315 0.0016342679 -0.047461122 0.00817281
-0.023647172 0.014048802 0.014046049 -0.0030894822 0.017859323 -0.007951641 -0.026316646 0.042489707
-0.048737463 0.05708051 -0.0040101553 0.042847667 -0.056976154 0.05970979 -0.0359505 0.013787096
-0.04625991 0.022811955 -0.10124918 -0.018641269 -0.016220119 -0.09357121 -0.09187702 0.026975669
-0.045358025 0.0094463825 0.056298055 -0.0136909615 0.01680217 0.07215156 -0.018028928 0.0011062024
-0.103567235 -0.041860145 -0.07609342 -0.0053412775 -0.09753629 0.0014519854 0.008180049 -0.049968462
-0.006084391 -0.042467054 -0.03598831 -0.010026323 -0.014333398 0.055023804 0.08919049 -0.03875727
-0.055258237 -0.017638516 0.026647622 0.027617425 0.06402407 0.04326183 0.05626265 -0.03417489
0.028140986 -0.022897918 0.05375761 -0.025239957 -0.0785282 -0.0045660003 -0.015686689 -0.06337697
0.010892668 0.021099074 0.08987485 -0.0028413304 -0.022655452 0.009474719 0.05088571 0.025966749
0.044926856 -0.05159785 -0.008150175 -0.02289369 0.03248995 0.018349133 -0.0052611376 -0.020538416
0.022608628 -0.052260816 -0.007757149 -0.040504772 0.024545023 -0.036291014 0.003930736 0.05305057
-0.06089198 -0.022036087 -0.0022632696 -0.03177658 -0.033380285 -0.0067104106 0.008031311 -0.01105356
-0.0037322633 -0.02988901 -0.051172998 0.040828466 -0.07854731 -0.059619926 -0.042527966 0.07702911
-0.085050575 -0.018914834 0.02654235 -0.011292267 -0.0835353 -0.0015405361 0.059919283 0.03164274
00000000: 741a aa3c b44b 79b8 83c2 d43d e19b 6f3d
00000010: df38 05bc c9a4 483c c61a 403b 7ae4 b7bc
00000020: 0366 67bd a0be 6fbc 16e1 6b3d 010f 62bc
00000030: 34af 81bc 83ac aabd 1cc7 b53c 6061 5fbd
00000040: 7139 143c 3c6c 39bd b12f 5a3d 0a8f 873c
00000050: 9887 4ebd d805 37bc 3be3 03b9 2724 bdbc
00000060: 8779 6c3c 96da 4ebd c9da 1fbc 64e2 09bc
00000070: 428f 48bd b8dc 75ba aac6 54bd 2c5a 513d
00000080: 34bc 70bc 41e5 aabd 4c82 03bd 0014 0c3d
00000090: 2081 10bd 3005 cabc e93c dd3c 3668 bc3d
000000a0: 74e9 80bc 58ea 4a3d 1d41 db3b 68dd 78bc
000000b0: 3351 82bc 4cdb 79bd b34d 973c c994 b5bd
000000c0: fe60 343d bbed b4bc a77b 24bd bd10 273d
000000d0: d557 4d3d c417 d73c b9c7 fb3b 1a6b e4b9
000000e0: 3a4f 3f3d d862 bdbc a67f b5bc fc34 31bc
000000f0: f2d0 443d f446 83bc 9945 c1bb fa87 29bc
00000100: a4f3 1abc 88a9 483c dd56 a2bd 44ca 17bb
00000110: 21d9 29bd 0d0e f23d 770c 66bc bd1b bd3d
00000120: e6f4 88bd c59d 8f3c bd18 4a3c 3e63 d2bb
00000130: 10f4 b1bd c544 b1bc 5c22 9bbc f6da c83c
00000140: 398f d0bc 936b ce3c 0fa3 3b3d 110e b43d
00000150: a62b c8bb dac0 913b 2d19 4a3c 1825 0abd
00000160: db3c 1c3c 7712 3e3d cbe7 5ebd 824e 3ebb
00000170: a297 073d ceb8 583d 39b9 483d 4a50 993c
00000180: de9e 123d 8d7f 79bc 9af6 a83d b85c 39bc
00000190: a0f1 603c 2343 f139 81e4 333c 3a6f ccbd
000001a0: 531c c7bc 0858 15bd 3b8c 6c3d 79a0 93bc
000001b0: 5f19 82bd fdda 64bd 72f0 eebc 41cd 113d
000001c0: 9505 c1bd eac7 13bc c118 38bd d786 d2bd
000001d0: 71a1 d0bc f9c5 4cbc 9c48 223c 8f57 7a3d
000001e0: 59d1 223d f08d a0bc 8df1 c73c 789a c739
000001f0: 71d0 f3bc b77b 5a3d fc1b 893b e1ab a1bb
00000200: 5015 20bc 445b 563d d7fb 053d 8a25 063d
00000210: ce17 1cbd a940 973c 6a73 acbc 1550 01b9
00000220: 4dcf 6ebc e23a 0c3d 03aa 193d 34e4 29bd
00000230: 9499 643c ee34 d63a 9866 42bd 40e7 053c
00000240: b7b7 c1bc f22c 663c 6621 663c e978 4abb
00000250: b74d 923c 9a47 02bc 0296 d7bc b009 2e3d
00000260: efa0 47bd 41cd 693d 9f67 83bb 0981 2f3d
00000270: d45f 69bd 4192 743d d540 13bd 46e3 613c
00000280: 087b 3dbd 23e0 ba3c bb5b cfbd 93b5 98bc
00000290: 0ee0 84bc 43a2 bfbd 052a bcbd 14fc dc3c
000002a0: 56c9 39bd 00c5 1a3c ca98 663d 0e50 60bc
000002b0: b4a4 893c 32c4 933d 67b1 93bc fefd 903a
000002c0: 0f1b d4bd 8b75 2bbd ded6 9bbd e205 afbb
000002d0: 1bc1 c7bd 8c50 be3a 9d05 063c bbab 4cbd
000002e0: 925f c7bb eff1 2dbd 7a68 13bd 7245 24bc
000002f0: a1d6 6abc a460 613d 81a9 b63d f1bf 1ebd
00000300: 7656 62bd a67e 90bc 1d4c da3c f03d e23c
00000310: 0d1f 833d 5133 313d aa73 663d f8fa 0bbd
00000320: ed87 e63c 6a94 bbbc f130 5c3d 07c4 cebc
00000330: 65d3 a0bd 639e 95bb 5f81 80bc c9cb 81bd
00000340: 2977 323c f7d7 ac3c 4e10 b83d 9d35 3abb
00000350: ed97 b9bc da3b 1b3c 896d 503d 38b8 d43c
00000360: 3905 383d 4458 53bd 5088 05bc 8c8b bbbc
00000370: 2f14 053d ec50 963c 9f65 acbb 2e40 a8bc
00000380: bb35 b93c 700f 56bd af2f febb 55e8 25bd
00000390: a512 c93c e3a5 14bd 67cd 803b 8e4b 593d
000003a0: de69 79bd 0685 b4bc 5d53 14bb 2928 02bd
000003b0: c4b9 08bd 01e3 dbbb c395 033c fe19 35bc
000003c0: fd98 74bb ccd9 f4bc c79a 51bd c03b 273d
000003d0: 69dd a0bd 0634 74bd ce31 2ebd 70c1 9d3d
000003e0: ff2e aebd 48f3 9abc 586f d93c 3303 39bc
000003f0: 8e14 abbd d0eb c9ba ec6d 753d d19b 013d

fc1.bias f4 [50]
-0.012400816 -0.034771446 -0.05884587 0.011356983 0.050923795 0.0036913904 0.02189992 0.0075053475
0.06204341 0.052658863 0.036203317 0.014052382 0.031188589 -0.01434518 -0.026309455 -0.022450566
-0.019493625 0.056380462 0.009906928 0.03222174 0.03213864 0.040850192 -0.00071214297 0.040385794
-0.031807065 -0.016494706 0.03756301 -0.031890515 -0.04076224 -0.03512865 -0.025642062 -0.027083626
0.026415572 0.031210208 0.012814369 0.0032587436 0.046145856 0.053411037 -0.00049316 0.028052751
-0.00028850077 0.009940242 -0.014388664 0.0075182356 0.07047344 0.004697763 0.032598644 0.026594881
0.031371396 0.049404792
00000000: cb2c 4bbc 816c 0ebd 5e08 71bd a412 3a3c
00000010: 7895 503d 41eb 713b 7667 b33c 6bef f53b
00000020: 3b21 7e3d d2b0 573d ee49 143d f63b 663c
00000030: 367f ff3c 0c08 6bbc ed86 d7bc 40ea b7bc
00000040: 18b1 9fbc 33ef 663d ab50 223c f1fa 033d
00000050: cea3 033d 8852 273d 1baf 3aba 936b 253d
00000060: 2048 02bd e81f 87bc acdb 193d a19f 02bd
00000070: 4ef6 26bd 0fe3 0fbd 4d0f d2bc 7bde ddbc
00000080: 7865 d83c 8dac ff3c 5cf3 513c a590 553b
00000090: 7003 3d3d 88c5 5a3d 6847 01ba e2ce e53c
000000a0: eb41 97b9 66dc 223c 6ebe 6bbc 885b f63b
000000b0: 6154 903d b1ef 993b 2886 053d 82dd d93c
000000c0: 4b7f 003d ae5c 4a3d

fc2.weight f4 [10, 50]
-0.012221398 0.12897041 0.13705647 0.15261292 0.23070721 -0.12517917 -0.1712489 -0.018867513
-0.3059603 0.16434461 -0.1561289 -0.12126809 -0.10158405 -0.24989435 -0.20891954 0.20117812
-0.17299953 0.18696886 -0.021092402 0.15499443 0.101070166 -0.20675011 -0.19220106 0.03500113
0.19839776 0.037105348 -0.0048961095 -0.13048926 0.11347534 0.1595751 -0.11253088 -0.14797935
0.10695721 -0.007944878 0.16024914 -0.12882067 -0.019435972 -0.056984924 -0.21461734 0.04586309
0.004234249 -0.12503672 0.21820879 -0.10126846 -0.1776536 0.23620768 -0.02942581 -0.19740497
0.14996122 0.1391242 0.21929277 -0.24207349 -0.005897041 -0.070958875 -0.15652925 -0.11433428
-0.1709975 0.180734 -0.049650185 -0.18286297 0.21244586 0.18153651 0.2258592 0.13518234
-0.15101993 0.0030120942 0.13599475 -0.18670607 -0.034204878 -0.094308406 -0.011356284 0.11222226
0.072844096 0.2976931 -0.100563474 0.15483363 -0.118464455 0.17488332 -0.1339794 -0.15455125
0.12904197 -0.08149501 -0.054992422 -0.060694065 -0.08488418 -0.14141424 0.20202562 0.37719157
0.20111041 -0.025103707 -0.17989402 0.10375255 -0.093935035 0.050200924 0.20968923 -0.123343974
-0.04187296 -0.11780109 -0.09706523 -0.027372006 0.0031948031 -0.09190429 -0.050662432 -0.010058114
-0.15127158 0.18559033 0.034710277 0.20014316 -0.24946736 0.0070668915 -0.028225968 -0.09839008
0.15200287 -0.20835948 -0.020791393 0.10861248 0.18550105 0.1727828 -0.15882318 0.08340911
0.031093193 -0.18213135 -0.23574753 -0.12132248 0.00029898144 0.18909688 0.12673932 0.17738806
0.15366144 0.18143077 -0.03878711 -0.05089608 -0.09852267 0.085189745 -0.015909912 -0.09930515
0.12640978 0.06625074 -0.09620745 -0.14371403 -0.17691323 0.13643108 0.22834253 0.017516391
0.20705809 -0.1352841 0.15857114 -0.05884882 -0.05274647 0.15563631 -0.019433731 -0.0123730395
0.092925 0.177286 -0.12956434 0.080057986 -0.041570235 0.20099922 0.087960005 -0.0535017
-0.17530899 -0.1712314 -0.111449435 0.21204709 0.1880129 -0.13221855 0.12582217 -0.07390697
-0.11780005 0.111825086 0.0044183373 -0.09747591 -0.14363487 -0.21688017 -0.062440675 0.17145789
-0.15035161 -0.08697415 0.1387008 -0.13070571 -0.09956158 0.19997741 -0.035780992 -0.14280163
-0.12346011 -0.09322909 0.19046514 -0.056026634 0.2174844 -0.07377566 -0.11736046 0.02155884
-0.061412208 0.22161107 -0.07204563 -0.081155166 0.10056509 -0.0023036909 -0.15925215 0.13725361
0.010237191 -0.25320977 0.087037645 -0.18799017 -0.106274955 0.17046857 0.24788652 -0.068239495
0.1294728 -0.11376949 0.1891353 0.010524572 0.06708684 0.045492664 0.22813743 -0.02371239
-0.16747475 0.20990875 0.24364464 -0.16430752 0.024836063 0.050765518 0.13169073 -0.13210309
-0.023898406 -0.2604185 -0.10349368 0.19988614 -0.11417023 0.18208392 0.18667643 -0.09216394
0.09819838 0.31318635 -0.19356342 0.11936043 -0.11936739 -0.0363161 0.01043191 -0.17083031
-0.086908035 0.036622588 -0.10761557 -0.048979152 -0.10027458 -0.09300292 -0.096686974 0.21494259
0.0047315136 -0.21641642 -0.10736754 0.119060025 -0.03949262 0.15049846 -0.11941193 -0.17924383
00000000: 423c 48bc d210 043e 8858 0c3e 9046 1c3e
00000010: 833e 6c3e f82e 00be df5b 2fbe 0b90 9abc
00000020: d4a6 9cbe f449 283e 41e0 1fbe 685b f8bd
00000030: 4c0b d0bd 4ee4 7fbe 01ef 55be a301 4e3e
00000040: ca26 31be c474 3f3e f9c9 acbc dcb6 1e3e
00000050: e0fd ce3d 4db6 53be 5bd0 44be 585d 0f3d
00000060: c828 4b3e c7fb 173d 8b6f a0bb fa9e 05be
00000070: c265 e83d a867 233e 9776 e6bd e687 17be
00000080: 620c db3d 3c2b 02bc 5a18 243e 91e9 03be
00000090: 3038 9fbc 0669 69bd a6c4 5bbe efda 3b3d
000000a0: 74bf 8a3b a009 00be 2072 5f3e d765 cfbd
000000b0: d3ea 35be 6de0 713e 650e f1bc 8724 4abe
000000c0: 6f8f 193e 9376 0e3e 498e 603e 1de2 77be
000000d0: f73b c1bb e352 91bd 3449 20be 1728 eabd
000000e0: f819 2fbe 5512 393e fe5d 4bbd 6e40 3bbe
000000f0: 688b 593e b5e4 393e a247 673e 3d6d 0a3e
00000100: f8a4 1abe 8e66 453b 3542 0b3e e02f 3fbe
00000110: 6a1a 0cbd c424 c1bd b50f 3abc c9d4 e53d
00000120: 492f 953d 3b6b 983e 39f4 cdbd b58c 1e3e
00000130: 7e9d f2bd 9d14 333e e531 09be af42 1ebe
00000140: 9423 043e dbe6 a6bd bc3f 61bd 579a 78bd
00000150: c2d7 adbd e5ce 10be cedf 4e3e 411f c13e
00000160: e3ef 4d3e 4aa6 cdbc 2336 38be 387c d43d
00000170: 0361 c0bd 7c9f 4d3d c6b8 563e c49b fcbd
00000180: fb82 2bbd b341 f1bd 23ca c6bd 423b e0bc
00000190: e75f 513b 5138 bcbd 6983 4fbd caca 24bc
000001a0: f0e6 1abe 640b 3e3e 5d2c 0e3d 54f2 4c3e
000001b0: 5f74 7fbe 6291 e73b 253a e7bc bd80 c9bd
000001c0: a4a6 1b3e 305c 55be b652 aabc 3870 de3d
000001d0: fdf3 3d3e f9ed 303e 8ba2 22be 65d2 aa3d
000001e0: 27b7 fe3c a480 3abe cd67 71be ec77 f8bd
000001f0: 9cc0 9c39 9da2 413e f4c7 013e 37a5 353e
00000200: 6d59 1d3e fdc8 393e 3cdf 1ebd 6878 50bd
00000210: 41c6 c9bd f677 ae3d 8155 82bc 8060 cbbd
00000220: 9171 013e 78ae 873d 6908 c5bd c529 13be
00000230: be28 35be 97b4 0b3e a0d2 693e 897e 8f3c
00000240: 0907 543e ea87 0abe 7960 223e 760b 71bd
00000250: af0c 58bd 205f 1f3e 7d33 9fbc 4ab8 4abc
00000260: 764f be3d 768a 353e 84ac 04be 71f5 a33d
00000270: 8d45 2abd bdd2 4d3e 6024 b43d 9924 5bbd
00000280: 3384 33be 4957 2fbe 9a3f e4bd df22 593e
00000290: 7486 403e 4d64 07be 87d7 003e 8a5c 97bd
000002a0: 2741 f1bd 8d04 e53d b3c7 903b 73a1 c7bd
000002b0: 0515 13be d615 5ebe cbc1 7fbd a892 2f3e
000002c0: c6f5 19be 811f b2bd 9507 0e3e b8d7 05be
000002d0: f1e6 cbbd e1c6 4c3e 178f 12bd 973a 12be
000002e0: a7d8 fcbd e5ee bebd 4b09 433e 2f7c 65bd
000002f0: 3bb4 5e3e b117 97bd ae5a f0bd 2a9c b03c
00000300: 5e8b 7bbd 03ee 623e a98c 93bd ae34 a6bd
00000310: 12f5 cd3d 85f9 16bb ff12 23be 368c 0c3e
00000320: e4b9 273c b6a4 81be cb40 b23d 7f80 40be
00000330: afa6 d9bd 508f 2e3e f7d5 7d3e 26c1 8bbd
00000340: 8594 043e faff e8bd afac 413e 416f 2c3c
00000350: d364 893d 8456 3a3d dc9c 693e 7c40 c2bc
00000360: 807e 2bbe 52f2 563e fb7d 793e 3b40 28be
00000370: 0075 cb3c 81ef 4f3d efd9 063e 0846 07be
00000380: 97c6 c3bc 9355 85be 7ff4 d3bd f4ae 4c3e
00000390: 15d2 e9bd 3574 3a3e 1b28 3f3e 73c0 bcbd
000003a0: 3b1c c93d f659 a03e 7d35 46be 3e73 f43d
000003b0: e476 f4bd 31c0 14bd 9aea 2a3c 24ee 2ebe
000003c0: d7fc b1bd 9101 163d 8d65 dcbd 5d9e 48bd
000003d0: c25c cdbd 5178 bebd d203 c6bd e919 5c3e
000003e0: d00a 9b3b 449c 5dbe 83e3 dbbd bed5 f33d
000003f0: 03c3 21bd 451c 1a3e 3e8e f4bd b28b 37be

fc2.bias f4 [10]
0.048687957 -0.0024018132 -0.082758285 0.097681604 0.08079098 0.08408266 -0.08277914 0.08752911
0.04455318 0.031096248
00000000: 066d 473d bd67 1dbb 2d7d a9bd 4b0d c83d
00000010: be75 a53d 8833 ac3d 1c88 a9bd 7642 b33d
00000020: 657d 363d 8fbd fe3c
